goodnet.pt (torch, 522183 bytes, 9 tensors)

weight_ih_l0 f4 [400, 20]
-0.65669775 -0.40733257 -0.5516501 -0.88015044 -0.1523487 0.56170106 -0.04294216 -0.24903704
-0.016489262 -0.030929066 -0.25443542 -2.0392177 0.4204299 0.12186539 0.48047137 -3.8937027
-0.43022624 -0.2915954 -2.6172051 -0.45258164 0.8441551 0.9359674 0.5762627 -0.24405985
0.2772124 -1.0466118 0.46498284 0.38988173 0.027186224 0.34334907 0.31733474 -2.6250918
0.32018718 17.091993 0.0009343518 2.4345431 0.18895774 -0.31250286 5.333413 -0.87751114
0.33551103 -0.10171645 0.28584203 -0.53860843 -0.010072145 -1.1514494 0.17267172 0.19038175
1.1387161 0.2763088 0.17231093 0.4524562 0.8237138 -6.6864953 0.3235732 0.18863815
0.35149792 0.23479705 -1.5866803 -1.5510584 0.43663543 -0.17170618 0.74272716 -0.5656971
0.23019975 -2.4057884 -0.13827628 0.08548157 0.25115684 0.066529915 0.055736493 1.2358388
0.16093735 8.994703 -1.5981036 -1.2947264 -1.887356 -1.745746 -0.9876023 0.44625875
-0.006919626 0.26624534 0.047675267 0.16241889 0.16635633 0.26509273 0.051145736 0.06338811
-0.032556713 0.21337306 0.053079568 -2.47153 0.21233478 -11.013144 -1.7159652 -2.1147263
2.0854857 0.8184943 -0.9923708 0.041793007 -0.46174404 -0.123764314 -0.5463505 -1.7347205
-1.0069101 -0.7446905 0.057967458 -0.021596538 0.037240073 -0.063667476 -0.0021887561 -2.937213
-0.6240537 2.582241 0.9494865 -0.5600523 -0.9959819 -0.9491452 0.16877674 -1.3223972
-0.26218832 -0.15779556 -0.53604 -0.095121175 -0.66885185 1.8559103 0.03187466 -0.095315
-0.014810591 -0.1102916 -0.13211837 -3.4093714 -0.27616367 6.1040096 -0.29506862 1.2620577
0.7785454 -0.14418957 4.3101325 -1.4063444 -0.6553727 -0.75137895 -0.77730936 -0.16936475
0.6972349 0.34464082 -0.12785089 -0.30703616 1.2830836 -0.03934735 -0.08133631 0.6415772
0.3539556 -1.1555915 1.1070511 1.7672963 0.64693856 0.8322557 0.22909543 -3.0281978
0.53367686 0.23827305 0.79006064 0.035158616 -0.09397293 0.29414472 0.32653302 0.22137438
-1.4562374 0.31914675 0.29016253 -0.77926195 0.13375007 11.366033 -1.091507 1.6149597
-0.08979132 -1.6035175 4.0239863 -0.8210436 0.50918055 0.976537 -0.15723284 2.267749
-0.03479702 2.5184538 0.20070077 0.18686663 -0.010168403 0.2304124 0.22575846 0.9547648
-0.0616018 -0.7051184 0.2602075 0.91595525 -1.0081108 -0.86074185 -1.4778845 0.88346666
-0.07084707 0.6635899 0.3986562 -0.9721443 0.05587389 0.1038449 -0.04378734 -0.16273713
-0.74848783 0.006769681 -0.27254227 -1.2196392 -0.106332876 8.939358 1.9364105 0.4017774
-0.84381896 -0.4857376 -0.72904646 1.2393023 0.1915908 0.76848173 0.2555373 -0.6641616
-0.07635059 -0.38684118 0.44407383 0.205645 -0.5296217 0.3703935 0.3771473 -2.158928
0.22882456 7.231077 1.5680245 -0.93498516 -0.3531816 -0.114457026 -2.035822 2.2532558
0.44572142 0.64692986 -0.13414693 2.8992589 0.75776523 3.2713761 0.056019496 -0.14315736
0.06917712 -0.13237588 0.014352555 0.3093581 -0.7192899 1.0765572 0.6632546 2.3047895
00000000: 581d 28bf e58d d0be f138 0dbf 8a51 61bf
00000010: 4c01 1cbe a4cb 0f3f 1ee4 2fbd 9103 7fbe
00000020: 7d14 87bc f45e fdbc 5c45 82be 8b82 02c0
00000030: 9642 d73e 9094 f93d 5800 f63e 6d32 79c0
00000040: 9d46 dcbe fe4b 95be 4a80 27c0 c8b8 e7be
00000050: 8c1a 583f 8f9b 6f3f f485 133f d3ea 79be
00000060: c9ee 8d3e 60f7 85bf 3b12 ee3e 949e c73e
00000070: a5b5 de3c 73cb af3e b379 a23e 8101 28c0
00000080: 93ef a33e 67bc 8841 4aef 743a 8ecf 1b40
00000090: 237e 413e 6000 a0be 52ab aa40 92a4 60bf
000000a0: 1ac8 ab3e b750 d0bd e359 923e 3ee2 09bf
000000b0: a305 25bc b262 93bf dbd0 303e 6ff3 423e
000000c0: 73c1 913f 5978 8d3e 4772 303e 57a8 e73e
000000d0: e8de 523f c5f7 d5c0 63ab a53e 5c2a 413e
000000e0: 89f7 b33e a36e 703e 5718 cbbf 1589 c6bf
000000f0: ae8e df3e bfd3 2fbe 5e23 3e3f 86d1 10bf
00000100: 7cb9 6b3e 70f8 19c0 4c98 0dbe f610 af3d
00000110: a197 803e d640 883d f34b 643d f72f 9e3f
00000120: c3cc 243e 4eea 0f41 a98e ccbf 98b9 a5bf
00000130: e294 f1bf 9b74 dfbf 81d3 7cbf 077c e43e
00000140: 08be e2bb 4f51 883e 2447 433d 2351 263e
00000150: 5059 2a3e 3cba 873e 317e 513d a0d1 813d
00000160: 305a 05bd 787e 5a3e f669 593d 8c2d 1ec0
00000170: 4a6e 593e d635 30c1 bfa4 dbbf ad57 07c0
00000180: 9978 0540 d888 513f 030c 7ebf 252f 2b3d
00000190: b769 ecbe 2578 fdbd a0dd 0bbf 520b debf
000001a0: 6ee2 80bf 09a4 3ebf 496f 6d3d 39eb b0bc
000001b0: 0c89 183d 1864 82bd 3c71 0fbb 4cfb 3bc0
000001c0: fcc1 1fbf 7043 2540 8c11 733f 965f 0fbf
000001d0: abf8 7ebf 2efb 72bf cfd3 2c3e 5044 a9bf
000001e0: 8c3d 86be 2995 21be eb39 09bf e4ce c2bd
000001f0: e039 2bbf 788e ed3f 018f 023d 8334 c3bd
00000200: 1fa8 72bc 90e0 e1bd 0a4a 07be 2433 5ac0
00000210: 5365 8dbe 0c54 c340 3c13 97be 1b8b a13f
00000220: c04e 473f 6ea6 13be 9bec 8940 1803 b4bf
00000230: 81c6 27bf 5f5a 40bf bffd 46bf f46d 2dbe
00000240: fd7d 323f c374 b03e 58eb 02be d833 9dbe
00000250: 153c a43f b02a 21bd a793 a6bd 673e 243f
00000260: ab39 b53e 6cea 93bf dab3 8d3f c436 e23f
00000270: c49d 253f b60e 553f fe97 6a3e fecd 41c0
00000280: 0c9f 083f dafd 733e 6a41 4a3f 7b02 103d
00000290: e174 c0bd 239a 963e 562f a73e f7af 623e
000002a0: fd65 babf 3467 a33e 2f90 943e b67d 47bf
000002b0: c7f5 083e 45db 3541 80b6 8bbf 00b7 ce3f
000002c0: 83e4 b7bd 1040 cdbf 7fc4 8040 ea2f 52bf
000002d0: a859 023f 54fe 793f a501 21be cd22 1140
000002e0: 5287 0ebd 592e 2140 8184 4d3e f759 3f3e
000002f0: 6099 26bc 3af1 6b3e 3a2d 673e 776b 743f
00000300: 2b52 7cbd a482 34bf eb39 853e 0b7c 6a3f
00000310: c609 81bf 9459 5cbf 522b bdbf df2a 623f
00000320: 4518 91bd 07e1 293f aa1c cc3e 73de 78bf
00000330: 05dc 643d a3ac d43d 5b5a 33bd 90a4 26be
00000340: e69c 3fbf 33d4 dd3b a98a 8bbe 231d 9cbf
00000350: 0dc5 d9bd 9c07 0f41 4ddc f73f c4b5 cd3e
00000360: 8504 58bf 99b2 f8be caa2 3abf 75a1 9e3f
00000370: 6130 443e 38bb 443f c9d5 823e 7f06 2abf
00000380: b35d 9cbd 0c10 c6be a55d e33e 9a94 523e
00000390: 4a95 07bf 38a4 bd3e 7319 c13e e02b 0ac0
000003a0: fc50 6a3e fc64 e740 07b5 c83f 305b 6fbf
000003b0: 38d4 b4be 7268 eabd e84a 02c0 5835 1040
000003c0: 9935 e43e 329d 253f d05d 09be 758d 3940
000003d0: e7fc 413f 3a5e 5140 b374 653d d897 12be
000003e0: bcac 8d3d 8b8d 07be fb26 6b3c 2f64 9e3e
000003f0: 6223 38bf a0cc 893f 0ecb 293f ac81 1340

weight_hh_l0 f4 [400, 100]
-0.013255327 0.8533281 0.5101415 0.43246773 -0.82681596 -0.6506954 1.2809603 -0.20906462
-0.08308261 0.72557795 0.69880414 -0.28365266 -0.12840876 -0.38786423 1.4081832 0.28120834
0.72470987 -0.44335765 0.023047205 0.82115227 0.97478104 1.006283 0.5691045 -0.8705922
0.5430166 -0.7888102 0.011035628 -1.2416456 0.03177749 -0.7644773 -0.43390462 0.07898922
0.7055206 -0.0076005613 0.5272613 -0.24940453 -0.09455816 -0.6445869 0.31442407 0.7608625
-1.5309185 0.5826648 -0.078144625 0.9969263 -1.2973592 -0.9344265 -1.2365614 -0.9524531
0.012790308 0.72534525 -0.59724915 -0.8313416 -0.3908276 0.04312061 -0.17115851 0.907019
0.40846312 1.1292647 0.30652177 -0.54935056 -0.056621667 -0.18312857 0.28777692 -1.0375276
-1.1721796 -0.732586 0.49140638 -0.26727557 0.80796033 -0.29907513 -0.63962954 1.062119
-0.2534875 0.15554954 0.80612 0.16936417 -0.2107557 -0.9901619 -0.13568053 0.8903182
-0.397514 0.13230516 0.6239089 1.2000358 3.1239045 0.05724474 0.23516041 -1.731456
1.3878434 0.06850937 -0.5612326 -0.24751015 1.0207299 -0.5621809 0.045454692 0.580237
-1.0122005 0.5057377 -0.3821115 0.41516396 -0.33328038 -0.2030354 -0.35530353 0.25696623
0.21602747 -0.0683559 0.87400866 -0.9250622 0.3473095 0.09910868 0.941442 -0.6576958
1.3141644 -1.925186 -0.34890774 -0.71539074 0.98801106 -0.3761499 -0.26186767 -1.3552421
0.6514507 -0.9184357 1.0922691 1.1530262 -0.23235497 0.39298654 1.4013296 -0.3926575
0.50815225 0.031231018 0.16513097 -0.12709281 -0.36793518 0.29880086 -0.021973312 -0.82405907
-0.26997665 -0.47038603 2.026463 1.2847967 -0.16221218 0.34728816 -0.6359275 2.2210567
-0.25455466 -0.86584455 -1.0549846 -0.15415484 0.086268224 -0.29377803 0.7768009 0.38297722
-0.8389187 0.6009554 -0.94621307 -0.9063279 0.45419386 2.3236182 -1.5047013 -1.1148049
-0.5171474 -1.3042159 0.27849504 -0.26486394 0.47414845 0.91691923 -0.16449991 -0.100250736
-0.74115646 -0.4069955 1.0896606 1.0322138 -0.5879106 -0.4471494 -0.38932353 -0.2786776
-0.44204408 -2.6539564 0.5102479 -0.19827789 0.16706373 0.543555 0.38262466 1.5666076
-0.6749947 -0.25508523 -0.7953984 1.7693751 -0.7027732 1.0742736 -1.0473685 0.011015348
1.1646578 -0.12171864 0.46268243 1.6489081 -1.0761137 0.9040121 -0.7721082 0.22680601
1.4826806 1.3050652 -0.25213364 0.3763467 -1.4888213 -2.300215 1.3691775 -1.9507966
0.3681668 0.9697766 -0.7416138 0.8943305 -0.19529264 0.38710487 -0.47186014 -1.6367211
-0.22305705 -1.1593052 -1.231977 -1.2241825 0.58514774 -0.81115764 0.76317215 0.36590794
0.52819574 0.07442482 -0.7333799 -0.095179155 1.0148225 1.8219907 0.4280636 0.42552888
-0.13941768 -0.7854318 2.2871282 0.06968113 0.9059413 -0.8580778 -1.0545628 -0.029397557
0.54060096 -0.6543028 -2.1265414 -1.0344896 -0.10172992 0.47421166 0.6302767 -0.29022402
-0.4021154 0.07131155 0.9081945 0.22251748 0.20130211 0.34606233 -2.1781175 0.51311296
00000000: df2c 59bc b673 5a3f a298 023f 696c dd3e
00000010: 36aa 53bf f993 26bf 82f6 a33f 0915 56be
00000020: 3727 aabd 7abf 393f d4e4 323f ec3a 91be
00000030: 967d 03be 2496 c6be 593f b43f 8afa 8f3e
00000040: 9686 393f c6ff e2be 7ecd bc3c 0937 523f
00000050: 408b 793f e2cd 803f d5b0 113f 21df 5ebf
00000060: 2303 0b3f 77ef 49bf c7ce 343c 3eee 9ebf
00000070: 1d29 023d c9b4 43bf bf28 debe 1ac5 a13d
00000080: ff9c 343f 210e f9bb 99fa 063f e763 7fbe
00000090: b5a7 c1bd a603 25bf 31fc a03e e3c7 423f
000000a0: 23f5 c3bf 8529 153f 4a0a a0bd 9036 7f3f
000000b0: de0f a6bf 9336 6fbf a547 9ebf f7d3 73bf
000000c0: 718e 513c 3ab0 393f 52e5 18bf ced2 54bf
000000d0: 8e1a c8be 3d9f 303d 2d44 2fbe 6632 683f
000000e0: 1422 d13e bf8b 903f 6cf0 9c3e 3da2 0cbf
000000f0: 1fec 67bd 0e86 3bbe 7f57 933e b4cd 84bf
00000100: fb09 96bf c28a 3bbf 9e99 fb3e 58d8 88be
00000110: 7dd6 4e3f 6020 99be c3be 23bf 84f3 873f
00000120: 1dc9 81be 6148 1f3e e15d 4e3f cd6d 2d3e
00000130: 58d0 57be 407b 7dbf d6ef 0abe e5eb 633f
00000140: f486 cbbe 017b 073e 7eb8 1f3f c69a 993f
00000150: 0dee 4740 7679 6a3d e4cd 703e 5aa0 ddbf
00000160: daa4 b13f a44e 8c3d f1ac 0fbf 4d73 7dbe
00000170: 47a7 823f 16eb 0fbf b32e 3a3d 698a 143f
00000180: c98f 81bf 0778 013f 1ea4 c3be 5f90 d43e
00000190: baa3 aabe 83e8 4fbe 58ea b5be 1491 833e
000001a0: 4e36 5d3e 2efe 8bbd 08bf 5f3f e0d0 6cbf
000001b0: 8dd2 b13e 7ef9 ca3d 5802 713f c05e 28bf
000001c0: 8a36 a83f 7f6c f6bf 09a4 b2be d923 37bf
000001d0: 4bee 7c3f b896 c0be 8513 86be 9378 adbf
000001e0: 79c5 263f 9a1e 6bbf 79cf 8b3f 5d96 933f
000001f0: 76ee 6dbe 8835 c93e c55e b33f 670a c9be
00000200: 4416 023f 31d8 ff3c 1818 293e 9e24 02be
00000210: 0062 bcbe 6dfc 983e 6001 b4bc 89f5 52bf
00000220: 613a 8abe 70d6 f0be 92b1 0140 3874 a43f
00000230: f31a 26be c1cf b13e 25cc 22bf cb25 0e40
00000240: fd54 82be fda7 5dbf bc09 87bf c4da 1dbe
00000250: 65ad b03d 136a 96be 6cdc 463f 9715 c43e
00000260: 60c3 56bf 37d8 193f 053b 72bf 1b05 68bf
00000270: 198c e83e 29b6 1440 0d9a c0bf edb1 8ebf
00000280: c663 04bf 8cf0 a6bf e796 8e3e 3f9c 87be
00000290: 96c3 f23e 38bb 6a3f aa72 28be 4250 cdbd
000002a0: 6ebc 3dbf b761 d0be 007a 8b3f 951f 843f
000002b0: 4f81 16bf c4f0 e4be 6a55 c7be d5ae 8ebe
000002c0: 9a53 e2be 6cda 29c0 9b9f 023f 5c09 4bbe
000002d0: c112 2b3e 6c26 0b3f 61e7 c33e 9986 c83f
000002e0: 74cc 2cbf 889a 82be 3b9f 4bbf e27a e23f
000002f0: f2e8 33bf cc81 893f 2c10 86bf b879 343c
00000300: 8213 953f 9f47 f9bd b6e4 ec3e 6c0f d33f
00000310: 18be 89bf 566d 673f e2a8 45bf d63f 683e
00000320: 7ac8 bd3f 600c a73f a917 81be 84b0 c03e
00000330: b291 bebf b936 13c0 3541 af3f b4b3 f9bf
00000340: 5c80 bc3e 4743 783f 67da 3dbf d8f2 643f
00000350: cbfa 47be 9c32 c63e a797 f1be 1480 d1bf
00000360: 1169 64be 1d64 94bf 6cb1 9dbf 03b2 9cbf
00000370: 3ecc 153f 07a8 4fbf 405f 433f 4958 bb3e
00000380: d637 073f 0a6c 983d c9be 3bbf 4aed c2bd
00000390: b4e5 813f fe36 e93f 272b db3e ecde d93e
000003a0: 82c3 0ebe 0f12 49bf 4f60 1240 fbb4 8e3d
000003b0: c5eb 673f fdaa 5bbf eafb 86bf 25d3 f0bc
000003c0: d364 0a3f 6380 27bf 4119 08c0 286a 84bf
000003d0: c757 d0bd dfcb f23e d059 213f 3e98 94be
000003e0: 12e2 cdbe ca0b 923d 6f7f 683f 9fdb 633e
000003f0: 2422 4e3e 152f b13e 4766 0bc0 5f5b 033f

bias_ih_l0 f4 [400]
-0.084453985 0.25020942 0.22581872 0.051423516 0.031770896 -0.04406045 -0.26025447 -0.14382038
0.39786968 0.08354079 -0.12224227 0.3441494 -0.11254933 0.06293392 0.38154513 -0.062917694
-0.0233365 0.3343323 0.30915514 0.08862975 0.5313744 -0.032357343 -0.014087752 0.66510254
-0.21859871 0.28051502 -0.09409907 0.7044267 -0.12437647 0.39260823 0.7086675 0.12234509
-0.08414835 0.052970488 0.31676933 0.05718263 0.21496487 0.6657382 0.28432974 0.5637806
0.6763073 0.92277336 0.4253293 0.7916902 -0.18894134 0.05369647 0.032651346 0.31800675
-0.03525537 0.42098412 0.09276042 1.1292355 -0.25072014 -0.29958367 0.032977153 0.8797171
0.3815862 0.07424097 0.22457315 0.16191144 -0.10153268 0.4821347 0.060572628 0.5024356
0.20083696 -0.12105169 0.5001195 0.5526824 0.95017606 -0.18191081 0.3025515 0.11760045
0.7230967 0.7230928 0.74423057 -0.061504904 0.28775913 0.32444248 -0.07727848 0.113792755
0.25641677 0.040412977 0.1198647 0.54992026 -0.31543967 0.065333344 -0.041880287 0.5096934
0.3008743 -0.35592163 0.51267505 -0.3556832 -0.095274344 0.11867885 -0.08240261 -0.23908687
-0.17019066 -0.17861202 0.27998665 0.20252751 0.6523126 0.7183922 -0.40201226 0.72305083
0.3163583 -0.4644364 0.3666593 -0.006552646 1.099037 -0.43916613 0.5395254 0.041521385
0.09793348 0.46975058 -0.042118542 0.5807471 0.83027905 0.7296503 0.29575494 0.5709804
-0.35001656 0.869371 -0.62395567 0.2558814 0.4333397 0.6212941 0.027007703 0.26828498
-0.056243364 -0.012609967 0.16337961 0.13626894 -0.26761955 -0.09542552 0.11816089 0.4054946
0.75349724 0.28676352 0.3160567 0.16725586 0.003429012 0.48941192 -0.24505113 -0.5565704
0.42589748 0.8668207 0.56880426 -0.21636258 0.38196498 0.41709164 0.3099468 0.5741509
0.6549735 -0.5360656 0.78363454 0.27027825 0.26645526 -0.019282086 0.97002375 0.95558137
-0.30381942 -0.38479608 0.28653723 0.7730294 0.9412223 -0.13459842 0.63501513 0.6447849
0.5176258 0.5633582 0.61426944 0.6659069 0.27062178 0.35853443 0.7375602 0.31868815
0.8300068 -0.73084444 0.07470968 0.4193832 0.14332362 0.2625297 -0.19385244 0.9876173
-0.11538345 0.261684 0.09246707 0.2204785 0.4746579 0.82350385 0.29649392 0.10117514
0.02012184 0.50757855 0.6119434 -0.14777699 -0.42236644 0.76849645 0.13126907 0.52264965
-0.30246705 -0.09465493 -0.07740204 -0.110229045 0.21400158 0.31714636 -0.11583989 -0.03841567
-0.43562174 0.053214487 0.076109365 -0.036021225 0.12100329 0.17951506 0.07708102 -0.08283494
0.07447078 -0.05380926 -0.024197537 0.13315392 -0.012754996 0.1360852 0.081869654 0.12885097
-0.075119376 0.16970606 0.109181054 0.13234803 -0.4884777 0.03974696 0.1907458 0.038743537
0.15270129 0.03311546 -0.30247125 0.09141394 0.014142797 -0.026197936 -0.06708301 -0.040455822
-0.1563884 0.22647305 -0.054365925 -0.003721111 0.09582087 -0.1145034 0.02105282 0.09788812
0.013808896 -0.05071546 0.12641455 -0.081662126 -0.10675456 -0.001065617 0.53845805 -0.30937263
00000000: 36f6 acbd 731b 803e 063d 673e 77a1 523d
00000010: 3322 023d bb78 34bd 1340 85be a645 13be
00000020: 93b5 cb3e 6f17 ab3d 285a fabd 5a34 b03e
00000030: 4380 e6bd 80e3 803d e259 c33e feda 80bd
00000040: 302c bfbc 9a2d ab3e 9549 9e3e 8483 b53d
00000050: 2708 083f 2289 04bd 51d0 66bc 2944 2a3f
00000060: 57d8 5fbe aa9f 8f3e 03b7 c0bd 4f55 343f
00000070: 17b9 febd f203 c93e 3c6b 353f 1090 fa3d
00000080: f855 acbd 95f7 583d 972f a23e 5538 6a3d
00000090: c01f 5c3e d26d 2a3f ab93 913e ed53 103f
000000a0: 7a22 2d3f e03a 6c3f c3c4 d93e 35ac 4a3f
000000b0: d779 41be d4f0 5b3d 6bbd 053d c8d1 a23e
000000c0: ef67 10bd 3b8b d73e 2df9 bd3d ca8a 903f
000000d0: 645e 80be 0863 99be 0d13 073d 2435 613f
000000e0: 445f c33e a60b 983d 81f6 653e 1dcc 253e
000000f0: 5ef0 cfbd 5cda f63e 011b 783d 9f9f 003f
00000100: 34a8 4d3e f3e9 f7bd d507 003f 987c 0d3f
00000110: bd3e 733f d446 3abe 08e8 9a3e 81d8 f03d
00000120: de1c 393f 9c1c 393f e585 3e3f 91ec 7bbd
00000130: 2a55 933e 531d a63e 2e44 9ebd 2d0c e93d
00000140: 0f49 833e 1488 253d a07b f53d 93c7 0c3f
00000150: 4f81 a1be 7dcd 853d aa8a 2bbd 447b 023f
00000160: 320c 9a3e 5c3b b6be ac3e 033f 1c1c b6be
00000170: 321f c3bd e60d f33d b3c2 a8bd 30d3 74be
00000180: 7646 2ebe 12e6 36be 695a 8f3e 5f63 4f3e
00000190: f5fd 263f 8de8 373f 8dd4 cdbe dc19 393f
000001a0: b7f9 a13e 9cca edbe c5ba bb3e 94b7 d6bb
000001b0: 3fad 8c3f 62da e0be 561e 0a3f 5412 2a3d
000001c0: 5991 c83d 2683 f03e 7e84 2cbd d8ab 143f
000001d0: 2b8d 543f 5dca 3a3f 316d 973e c62b 123f
000001e0: 5f35 b3be 198f 5e3f 8fbb 1fbf e302 833e
000001f0: b3de dd3e 210d 1f3f 423f dd3c a65c 893e
00000200: 715f 66bd 099a 4ebc fc4c 273e 168a 0b3e
00000210: 6e05 89be 746e c3bd 56fe f13d fd9c cf3e
00000220: 32e5 403f abd2 923e 2fd2 a13e 1f45 2b3e
00000230: 46b9 603b 3394 fa3e afee 7abe 667b 0ebf
00000240: 3c0f da3e f6e7 5d3f 289d 113f 278e 5dbe
00000250: ea90 c33e 098d d53e 59b1 9e3e 8efb 123f
00000260: 58ac 273f 983b 09bf 469c 483f e961 8a3e
00000270: d36c 883e 77f5 9dbc 7a53 783f fba0 743f
00000280: 388e 9bbe fe03 c5be 02b5 923e 41e5 453f
00000290: f2f3 703f 2bd4 09be 5a90 223f a010 253f
000002a0: 2083 043f 3e38 103f c340 1d3f e078 2a3f
000002b0: f08e 8a3e d391 b73e bfd0 3c3f 182b a33e
000002c0: 537b 543f 9f18 3bbf 6401 993d 65b9 d63e
000002d0: 6dc3 123e 4b6a 863e 4181 46be 7dd4 7c3f
000002e0: 294e ecbd 72fb 853e 605f bd3d 1ec5 613e
000002f0: 5c06 f33e 26d1 523f 0dce 973e e934 cf3d
00000300: 8fd6 a43c abf0 013f 53a8 1c3f da52 17be
00000310: 6a40 d8be 2fbc 443f 666b 063e 5ecc 053f
00000320: f6dc 9abe 72da c1bd f684 9ebd c4bf e1bd
00000330: 3b23 5b3e 0261 a23e 773d edbd c059 1dbd
00000340: d009 dfbe 6ff7 593d 3adf 9b3d fe8a 13bd
00000350: 93d0 f73d ccd2 373e a7dc 9d3d 5da5 a9bd
00000360: 2384 983d 1967 5cbd ea39 c6bc 8059 083e
00000370: 55fa 50bc eb59 0b3e 47ab a73d 82f1 033e
00000380: 30d8 99bd 6dc7 2d3e 519a df3d 3e86 073e
00000390: c019 fabe b5cd 223d de52 433e 8bb1 1e3d
000003a0: ba5d 1c3e 14a4 073d 83dd 9abe 3b37 bb3d
000003b0: 31b7 673c 0e9d d6bc d162 89bd 01b5 25bd
000003c0: 4824 20be 8de8 673e ceae 5ebd e2dd 73bb
000003d0: bb3d c43d c280 eabd f776 ac3c 9179 c83d
000003e0: b53e 623c 04bb 4fbd d172 013e 793e a7bd
000003f0: 22a2 dabd 2cac 8bba 63d8 093f 1766 9ebe

bias_hh_l0 f4 [400]
-0.17823188 0.42393222 0.15348557 0.1726774 0.2000852 -0.040299088 -0.13668409 -0.14101224
0.22386666 0.05591075 -0.14049204 0.3944191 -0.097355 0.09418633 0.23669149 -0.08025606
-0.04662295 0.27859128 0.43258193 0.057150066 0.43168554 0.014619981 0.026789408 0.7079047
-0.06931653 0.336911 -0.109744534 0.7984479 -0.13013257 0.37282375 0.6378013 -0.05597248
-0.027543696 -0.0420896 0.21520257 -0.029069599 0.34539792 0.7506597 0.31878495 0.44101155
0.65081036 0.8831194 0.25921407 0.84734267 -0.035895895 -0.03313652 -0.05373433 0.27561775
-0.011890148 0.45229653 0.0324174 1.2560811 -0.2471935 -0.114945546 0.15042736 0.9062315
0.37234762 0.17923908 0.2492672 0.12645242 0.04159477 0.49444863 0.08321819 0.5303647
0.15676588 -0.041847467 0.41151243 0.5473069 0.91510206 -0.2929724 0.21458752 0.21123242
0.78891844 0.86976236 0.88350606 -0.18194601 0.27733237 0.2571736 -0.119920895 0.07816702
0.22980586 0.06887042 0.12667717 0.56679106 -0.34465843 0.10298846 -0.020390997 0.49741188
0.21946032 -0.36294332 0.540196 -0.24220788 -0.2242933 0.04692713 -0.08485708 -0.13269182
-0.06374414 -0.1068604 0.2726041 0.18655522 0.59601736 0.7172954 -0.28706974 0.6783288
0.4199027 -0.355027 0.41590494 0.0696261 1.0437007 -0.3361535 0.5502923 0.0029739866
0.080288395 0.4740279 -0.04268471 0.5833998 0.66651154 0.65460455 0.33044523 0.567383
-0.45573613 0.9711977 -0.64671683 0.2502926 0.45831862 0.6588379 -0.027914446 0.3524888
0.12440027 -0.04126218 0.08567041 0.095821686 -0.25988075 -0.11220021 -0.05762417 0.383789
0.7048538 0.1552699 0.42134392 0.21743052 0.07034734 0.47339115 -0.24698052 -0.5174609
0.43994123 0.6894078 0.47084197 -0.21289809 0.21995695 0.48627293 0.20487261 0.5976125
0.7047977 -0.70425916 0.78827626 0.31430286 0.3228219 -0.08462398 1.1043195 0.92731327
-0.35371202 -0.36346704 0.28830805 0.93294835 1.0841079 -0.09704273 0.5641311 0.737464
0.555348 0.5242829 0.48928598 0.566746 0.4003999 0.35133204 0.7241574 0.33318973
0.7540606 -0.75577796 0.06033404 0.38921136 0.22121215 0.27497846 -0.2780263 1.0177633
-0.1408774 0.37411588 0.18920165 0.21255489 0.49773777 0.8051821 0.4736509 0.052252375
0.013486063 0.57076037 0.55489004 -0.08628946 -0.39284804 0.6766775 0.113619305 0.6360739
-0.2910302 0.019388167 -0.14754634 -0.05093736 0.1178666 0.33402526 -0.17245497 0.07126451
-0.427961 0.014195051 0.07089465 -0.16921192 0.039151933 0.11975374 0.0683457 -0.18636201
0.16259147 0.07516597 0.0016478524 0.082034975 0.027263183 0.03689919 0.20115305 0.2394321
-0.0733148 0.04314336 0.052595776 0.10041709 -0.4909912 0.0770087 0.142399 0.0972353
0.056234285 0.01388543 -0.23258005 0.10514466 -0.1028792 -0.062412325 -0.06699325 0.040648658
0.008884732 0.3235249 0.041293267 0.046341136 -0.00872648 -0.03699027 -0.10117042 0.19289838
0.10867916 0.09332515 0.24195977 -0.106963485 -0.11716731 0.06518828 0.45605737 -0.30519754
00000000: 6b82 36be a50d d93e 522b 1d3e 58d2 303e
00000010: 22e3 4c3e a810 25bd eaf6 0bbe 8365 10be
00000020: 4d3d 653e ac02 653d 25dd 0fbe 4df1 c93e
00000030: 0f62 c7bd c3e4 c03d 415f 723e 4a5d a4bd
00000040: b5f7 3ebd 84a3 8e3e 617b dd3e 3016 6a3d
00000050: e305 dd3e a588 6f3c 7675 db3c 3e39 353f
00000060: d3f5 8dbd 997f ac3e bec1 e0bd 1567 4c3f
00000070: 7941 05be c1e2 be3e f246 233f 6643 65bd
00000080: 51a3 e1bc 2566 2cbd 105e 5c3e 5e23 eebc
00000090: ffd7 b03e 3c2b 403f c837 a33e 44cc e13e
000000a0: 829b 263f 1d14 623f b5b7 843e 73eb 583f
000000b0: 9307 13bd 29ba 07bd 8718 5cbd c51d 8d3e
000000c0: e5ce 42bc 6993 e73e 1cc8 043d 44c7 a03f
000000d0: 4b20 7dbe 9268 ebbd a109 1a3e cafe 673f
000000e0: 59a4 be3e 738a 373e e73f 7f3e be7c 013e
000000f0: 475f 2a3d 5f28 fd3e 4c6e aa3d fbc5 073f
00000100: 3c87 203e 4068 2bbd c2b1 d23e 4e1c 0c3f
00000110: 2144 6a3f 7a00 96be d5bc 5b3e 504d 583e
00000120: 8ff6 493f bfa8 5e3f 742d 623f 0e50 3abe
00000130: 82fe 8d3e 42ac 833e 1699 f5bd 0816 a03d
00000140: 3a52 6b3e ef0b 8d3d a9b7 013e 3819 113f
00000150: 1277 b0be 9deb d23d 050b a7bc c5ac fe3e
00000160: 35ba 603e b5d3 b9be 494a 0a3f 5805 78be
00000170: 25ad 65be aa36 403d 8cc9 adbd 5de0 07be
00000180: 4a8c 82bd a0d9 dabd c492 8b3e 5508 3f3e
00000190: 9894 183f aca0 373f cefa 92be f5a6 2d3f
000001a0: 7dfd d63e 19c6 b5be 7ef1 d43e 2198 8e3d
000001b0: fc97 853f 501c acbe f5df 0c3f 37e7 423b
000001c0: 3e6e a43d c9b3 f23e 2ad6 2ebd b059 153f
000001d0: 80a0 2a3f 2a94 273f 1e30 a93e 0340 113f
000001e0: 3f56 e9be 6aa0 783f 3c8f 25bf 5a26 803e
000001f0: bda8 ea3e 9aa9 283f d6ac e4bc 6979 b43e
00000200: 92c5 fe3d 8802 29bd f873 af3d 293e c43d
00000210: 170f 85be 39c9 e5bd 5207 6cbd fe7f c43e
00000220: 4c71 343f 13ff 1e3e 64ba d73e 1ba6 5e3e
00000230: 4412 903d 5360 f23e 76e8 7cbe 5178 04bf
00000240: fa3f e13e 087d 303f 3312 f13e f501 5abe
00000250: 653c 613e c4f8 f83e 20ca 513e 22fd 183f
00000260: 9f6d 343f 544a 34bf 79cc 493f 4eec a03e
00000270: e948 a53e 564f adbd 575a 8d3f 6764 6d3f
00000280: be19 b5be 5a18 babe 1d9d 933e b4d5 6e3f
00000290: 0cc4 8a3f 57be c6bd e56a 103f 71ca 3c3f
000002a0: 492b 0e3f 6737 063f b183 fa3e 4416 113f
000002b0: 3701 cd3e cbe1 b33e 6162 393f d897 aa3e
000002c0: 1e0a 413f aa7a 41bf d420 773d b646 c73e
000002d0: 7085 623e fac9 8c3e 7759 8ebe 1146 823f
000002e0: 2a42 10be 1e8c bf3e 14be 413e fda7 593e
000002f0: 7cd7 fe3e 6a20 4e3f 5f82 f23e 9606 563d
00000300: a6f4 5c3c 5a1d 123f 460d 0e3f 87b8 b0bd
00000310: 6123 c9be bd3a 2d3f 3db1 e83d bdd5 223f
00000320: e901 95be efd3 9e3c 6316 17be b1a3 50bd
00000330: 0b64 f13d 5c05 ab3e 0998 30be 21f3 913d
00000340: b41d dbbe 5c92 683c 3731 913d e445 2dbe
00000350: c75d 203d 7341 f53d d5f8 8b3d afd5 3ebe
00000360: 617e 263e 9ef0 993d c0fc d73a f401 a83d
00000370: 0a57 df3c 9b23 173d 11fb 4d3e b02d 753e
00000380: 1226 96bd 18b7 303d ab6e 573d 7aa7 cd3d
00000390: 3363 fbbe bdb6 9d3d 0bd1 113e 4d23 c73d
000003a0: ec55 663d b77f 633c 7729 6ebe 1556 d73d
000003b0: 54b2 d2bd 11a4 7fbd c233 89bd 357f 263d
000003c0: 4491 113c 0ea5 a53e 2123 293d 34d0 3d3d
000003d0: 83f9 0ebc 1c83 17bd 7032 cfbd 2787 453e
000003e0: 2e93 de3d 4221 bf3d 4dc4 773e ac0f dbbd
000003f0: 6af5 efbd 6f81 853d 5a80 e93e da42 9cbe

weight_ih_l1 f4 [400, 100]
-2.6389077 0.42561013 -0.20984553 0.32401004 -0.18826167 -0.48539475 0.28840524 0.31694046
0.9413344 -0.44562268 0.63927764 -1.7265102 -0.72230965 -1.4431447 -1.5385431 0.3104608
1.1843115 1.6041948 -0.12937541 -0.8929834 0.5242898 0.78572804 0.47471115 -1.1915772
1.241575 0.56510025 -0.782247 0.3364077 0.27127084 -1.8821902 -0.17031977 0.37787193
-1.506594 0.28633156 0.2837173 0.42905414 -0.34760252 -0.12009043 0.35646918 -1.2335455
-1.4963143 0.008970821 1.6139958 -1.0749732 -0.28939822 -0.0071748463 -0.96565473 -0.4313665
-1.064699 -0.6060983 -1.3789575 -0.11514843 0.42096072 -0.61727965 -0.06770525 1.4424319
-0.27519298 1.2994387 -0.15201968 -0.42097712 0.5157256 0.016159967 -0.07111382 0.23954768
0.33968702 0.97523814 0.24048896 -0.49706897 0.40435526 -0.38008913 0.09268097 0.9839653
0.17753203 0.2380456 -1.0044832 0.30099323 -0.8633473 -0.9140154 0.29282036 -1.0698005
-0.48845208 0.16238092 0.26789257 0.8405591 0.1467098 0.4431581 -0.23057888 0.81564623
-0.62822104 0.9422338 -0.03136212 0.93422884 -0.38485917 1.0533909 0.16903488 -0.506399
-0.105539456 0.8764285 -1.4453868 0.7554062 -0.5618122 -0.14392549 -0.095629364 0.41729107
-0.08098274 0.37362427 -0.058263868 -0.40849674 0.24337023 -0.40807322 0.7861124 -0.56487936
-0.9062431 0.28474703 0.6138005 -0.25652766 1.1740972 0.21196903 -0.18943681 -0.034584526
-0.31475386 -0.36791152 -2.2544658 0.2252895 0.49076837 0.025617484 -0.5283383 -0.08113122
0.6947343 0.108665325 -0.78232104 -1.8771509 0.3814095 0.58555865 -0.61978155 -0.6363218
0.45498613 -0.16048452 0.3677492 1.8939342 -0.17371361 0.47384444 0.23519538 0.12465689
-0.08712267 -0.3287957 0.61875993 0.114703424 1.0593245 0.07728121 -0.9080872 -0.81081647
-0.38330877 0.48814824 -0.2110857 0.30868277 -0.28905797 0.47860938 0.8130918 -0.98106235
-1.0714171 -0.2981216 0.31509325 -0.416508 0.6444231 0.47074854 0.30579856 0.96598613
0.2577301 -0.625342 -0.10579564 -0.64083266 -0.69757414 0.29163983 0.40145427 -0.47557425
-0.1410617 1.1694916 0.2185233 -0.6205289 0.34305018 0.36690986 1.1352859 1.9354011
0.63260126 0.64636683 0.22790435 -0.76833403 2.2074249 -0.551055 -0.63776475 -0.11373311
-1.7145367 1.8388757 0.101508096 -0.42318794 -0.14537592 -0.41846603 -0.30545998 0.098343186
-0.11897407 0.23725578 0.08225641 -0.2718264 -0.96021867 -0.9567278 0.19537283 -0.052317567
0.011961987 -0.14002927 -0.74429435 0.5432641 1.142502 -0.15824112 -0.15707918 0.11077288
-0.6442402 -0.74107844 -0.29695863 -0.30269983 -0.23913026 0.20526466 0.21165772 -0.58270836
-0.6185402 0.26542434 -0.6952775 -0.8271433 -0.21523388 0.16819404 -0.63937837 -0.12845738
-0.19185632 0.043467395 0.03568837 -0.5680065 0.24609442 -0.11681765 -0.8112989 0.73356324
-0.6569923 -0.27687484 -0.64768153 -0.061082073 1.219491 -0.40989548 -0.03909005 0.41751042
-0.5579225 -0.6482089 0.06996194 -0.6321169 -0.34278494 -0.31765172 -0.028612947 1.1171063
00000000: dde3 28c0 92e9 d93e bfe1 56be a5e4 a53e
00000010: abc7 40be a985 f8be daa9 933e 0546 a23e
00000020: 4bfb 703f a828 e4be b3a7 233f 49fe dcbf
00000030: 49e9 38bf f7b8 b8bf fbee c4bf b8f4 9e3e
00000040: 8597 973f 4156 cd3f fd7a 04be 8f9a 64bf
00000050: db37 063f 7925 493f 570d f33e 9a85 98bf
00000060: eeeb 9e3f 69aa 103f 5741 48bf a13d ac3e
00000070: 03e4 8a3e 9ceb f0bf 4e68 2ebe 6e78 c13e
00000080: 12d8 c0bf 0d9a 923e 6543 913e fcac db3e
00000090: f5f8 b1be f9f1 f5bd 2183 b63e d2e4 9dbf
000000a0: 3a87 bfbf 5afa 123c 6a97 ce3f b998 89bf
000000b0: 012c 94be f91a ebbb 2635 77bf 12dc dcbe
000000c0: 0f48 88bf 4229 1bbf ae81 b0bf f1d2 ebbd
000000d0: 2a88 d73e 0a06 1ebf 0da9 8abd 9ca1 b83f
000000e0: 18e6 8cbe 0254 a63f 0cab 1bbe 508a d7be
000000f0: 9806 043f e861 843c 1fa4 91bd fd4b 753e
00000100: 75eb ad3e 35a9 793f bd42 763e d37f febe
00000110: a707 cf3e 0b9b c2be 85cf bd3d 26e5 7b3f
00000120: f5ca 353e 3ac2 733e e892 80bf c91b 9a3e
00000130: 5404 5dbf eafc 69bf 8dec 953e 39ef 88bf
00000140: 6416 fabe 2f47 263e 3729 893e e22e 573f
00000150: 183b 163e 9ee5 e23e df1c 6cbe 31ce 503f
00000160: 18d3 20bf 3c36 713f 9175 00bd 9f29 6f3f
00000170: 430c c5be 83d5 863f 7b17 2d3e 5da3 01bf
00000180: 1225 d8bd 9e5d 603f 6f02 b9bf 4d62 413f
00000190: edd2 0fbf 3461 13be 54d9 c3bd 2da7 d53e
000001a0: 47da a5bd ae4b bf3e 18a6 6ebd 7c26 d1be
000001b0: 0c36 793e f9ee d0be aa3e 493f ef9b 10bf
000001c0: 8cff 67bf 5dca 913e 0822 1d3f 9857 83be
000001d0: d148 963f 690e 593e b9fb 41be 81a8 0dbd
000001e0: 6b27 a1be e65e bcbe 2b49 10c0 4ab2 663e
000001f0: fe45 fb3e c2db d13c 2e41 07bf 2028 a6bd
00000200: 1bda 313f ed8b de3d 3146 48bf 7b46 f0bf
00000210: 1b48 c33e 2ce7 153f 01aa 1ebf fce5 22bf
00000220: f1f3 e83e 0e56 24be a049 bc3e 706c f23f
00000230: fbe1 31be bd9b f23e 0fd7 703e 1d4c ff3d
00000240: 5f6d b2bd e957 a8be 0d67 1e3f a1e9 ea3d
00000250: f297 873f 9c45 9e3d 6778 68bf ab91 4fbf
00000260: 0c41 c4be 91ee f93e da26 58be ab0b 9e3e
00000270: 68ff 93be 4a0c f53e c926 503f e726 7bbf
00000280: 3224 89bf 65a3 98be e753 a13e 8940 d5be
00000290: eaf8 243f f405 f13e a191 9c3e de4a 773f
000002a0: 33f5 833e 6a16 20bf 62ab d8bd 9c0d 24bf
000002b0: 3894 32bf d151 953e 6a8b cd3e 787e f3be
000002c0: 7a72 10be e7b1 953f 92c4 5f3e fbda 1ebf
000002d0: 46a4 af3e 9cdb bb3e 0c51 913f 39bb f73f
000002e0: 28f2 213f 4c78 253f c25f 693e 8ab1 44bf
000002f0: 7346 0d40 f111 0dbf 8d44 23bf e8ec e8bd
00000300: f075 dbbf 4760 eb3f 7ae3 cf3d 17ac d8be
00000310: 6ddd 14be 2e41 d6be 4065 9cbe 2768 c93d
00000320: ada8 f3bd 2ef3 723e 0c76 a83d d42c 8bbe
00000330: e4d0 75bf 1dec 74bf d10f 483e f24a 56bd
00000340: 36fc 433c d563 0fbe 138a 3ebf 5b13 0b3f
00000350: 813d 923f f609 22be 5dd9 20be e4dc e23d
00000360: edec 24bf 51b7 3dbf f60a 98be 79fb 9abe
00000370: 90de 74be e630 523e cdbc 583e 602c 15bf
00000380: a758 1ebf b3e5 873e b5fd 31bf aabf 53bf
00000390: 4566 5cbe 0f3b 2c3e 4dae 23bf 558a 03be
000003a0: fc75 44be de0a 323d f82d 123d e068 11bf
000003b0: 2d00 7c3e 183e efbd 49b1 4fbf cdca 3b3f
000003c0: a630 28bf 8ac2 8dbe 75ce 25bf 3231 7abd
000003d0: 4818 9c3f d2dd d1be e31c 20bd edc3 d53e
000003e0: 02d4 0ebf 05f1 25bf 3548 8f3d 6ad2 21bf
000003f0: 8281 afbe 3fa3 a2be b365 eabc 57fd 8e3f

weight_hh_l1 f4 [400, 100]
-0.46397778 0.08542426 0.63828677 0.34764332 0.038161952 0.28821993 -1.6270627 -0.9288938
0.4335021 0.2814491 -0.5895217 0.45918596 0.22840412 -0.12915492 0.07081429 -0.11502002
-0.36597008 -1.0175589 0.70825577 -0.8624905 -0.10377768 -0.3924235 0.024295952 1.5238588
1.382585 -0.8420778 -0.21943586 -0.11574588 0.20489095 0.3426256 -1.5574213 -0.41629654
-0.55420506 0.49888662 -0.40737298 -0.9867458 0.07673447 0.789514 -1.063028 -0.15514067
-0.58601487 -1.4063207 0.119005695 -1.2497922 0.69468826 0.18893182 -0.7926856 0.048976637
0.04983989 -1.9071686 -0.40222827 0.16156885 -0.159682 -0.99307036 -1.0467241 -0.8364119
0.15644412 2.1746452 -1.145923 -0.06044569 0.42335925 0.4285949 0.8080555 0.08001266
-0.5021392 0.06977129 0.12751575 0.22704855 0.658708 0.31204197 1.4955763 0.031171013
0.099512026 -0.5281352 -0.42940786 -0.522414 -1.7084694 0.058974363 -0.9633133 -0.2943404
0.40256003 -0.6741366 0.41647214 1.3376619 0.15790637 -0.2287612 -0.9016478 0.4649381
0.4779167 0.12108757 -0.24903072 0.11250913 -0.8152243 0.17468418 -0.6727025 -0.3975761
-0.42855465 0.27522138 -1.0120119 0.6283485 -1.0127349 0.8553651 -0.2116499 0.1479642
-2.1160324 -0.6201416 0.43198696 -0.9322938 1.3366154 0.20364206 -0.17638315 0.42466238
1.58081 -0.43490925 0.111031674 -0.8615335 -0.5089925 0.15164146 0.2238353 -0.65772504
-0.87431145 -0.8899717 0.97428215 0.021072902 0.6163267 -1.0059499 1.4411218 -0.4053385
-0.20077702 -0.6038662 -0.9488541 0.43778813 -0.8015406 -0.28543994 0.5431446 0.6259577
0.96006805 -0.37227526 -0.91589856 -0.6455068 -0.7845422 -1.1051929 0.33164296 -0.44947916
0.4743857 -1.2935948 -0.87623096 0.17715417 1.0879152 -0.2385332 1.4212514 -0.53967196
-1.6207118 0.34439775 0.2565994 -0.37487856 0.5120202 -0.03320551 -1.6786861 -0.4894481
-0.14977035 0.44603452 0.41520473 0.46828967 1.0525818 -1.1521109 1.161575 -1.0453475
-1.731379 -0.08241393 0.18292913 3.2549708 -0.16244705 -0.20241609 -0.6631225 0.6461884
-0.41086417 0.362986 -0.4826014 1.277464 1.4617903 0.63360643 -1.9663963 -0.3418566
1.2248027 -1.2085755 -0.44236213 0.13297889 1.0089922 -0.4841831 0.27614042 -2.3210263
-0.31789246 -1.4497129 0.6345899 -0.22860608 -0.49018648 0.6646558 0.30738387 -1.4003824
0.25005242 -0.7981555 -0.9510879 0.31261772 -0.21847142 -1.6688342 0.89903855 -0.48094118
-0.8134523 -0.49717268 -0.0025669297 0.35778546 0.5624427 0.3278763 0.4314243 0.4042511
-0.007842745 0.91818583 0.7581622 -0.046882883 -1.4311785 -1.1352043 0.32798707 -0.4477583
-1.4438139 -0.19090267 0.25826997 -0.44293818 0.25963455 0.9836516 0.28272757 0.72042364
0.4600069 0.08109106 -0.3107346 0.6080398 0.28042594 0.10106051 0.81184167 -0.5106813
0.49529862 0.4645153 -0.2838049 1.4693104 -0.789137 -0.30422324 -0.4972382 -0.12501025
0.21416114 -0.37030965 0.37040016 -1.0339271 0.2237576 0.47864696 -0.5365547 1.1481178
00000000: 7f8e edbe eaf2 ae3d c366 233f 4efe b13e
00000010: b54f 1c3d 9091 933e 9743 d0bf fccb 6dbf
00000020: fdf3 dd3e 191a 903e e5ea 16bf 6c1a eb3e
00000030: c5e2 693e 3041 04be 1507 913d 9e8f ebbd
00000040: 6e60 bbbe 5f3f 82bf 4050 353f 2dcc 5cbf
00000050: 6489 d4bd bceb c8be 4e08 c73c ce0d c33f
00000060: 8cf8 b03f 6992 57bf cbb3 60be 2d0c edbd
00000070: efce 513e 9f6c af3e 9559 c7bf d224 d5be
00000080: 62e0 0dbf 116e ff3e 3193 d0be 5f9b 7cbf
00000090: f626 9d3d 971d 4a3f 4d11 88bf 32dd 1ebe
000000a0: 1205 16bf 5102 b4bf 42b9 f33d 31f9 9fbf
000000b0: 17d7 313f 5877 413e 72ed 4abf ba9b 483d
000000c0: ea24 4c3d 1a1e f4bf ddf0 cdbe 4e72 253e
000000d0: ae83 23be dc39 7ebf 0efb 85bf 171f 56bf
000000e0: e332 203e 632d 0b40 9bad 92bf e695 77bd
000000f0: 8bc2 d83e ca70 db3e badc 4e3f addd a33d
00000100: 328c 00bf 40e4 8e3d 7d93 023e 6a7f 683e
00000110: 16a1 283f f7c3 9f3e 0b6f bf3f 5a5a ff3c
00000120: f6cc cb3d de33 07bf 59db dbbe edbc 05bf
00000130: 20af dabf 1a8f 713d b39b 76bf c9b3 96be
00000140: 591c ce3e 3794 2cbf d63b d53e 8138 ab3f
00000150: 35b2 213e 6040 6abe 64d2 66bf 5e0c ee3e
00000160: 7fb1 f43e c3fc f73d e901 7fbe 306b e63d
00000170: 8ab2 50bf 69e0 323e 3b36 2cbf 188f cbbe
00000180: 846b dbbe d1e9 8c3e 9b89 81bf 73db 203f
00000190: 4ca1 81bf 35f9 5a3f c0ba 58be ed83 173e
000001a0: 136d 07c0 9ac1 1ebf 652d dd3e ceaa 6ebf
000001b0: 3716 ab3f 8b87 503e c99d 34be 596d d93e
000001c0: fb57 ca3f 6dac debe 9364 e33d 768d 5cbf
000001d0: 554d 02bf e647 1b3e 1535 653e ab60 28bf
000001e0: e0d2 5fbf 2fd5 63bf 8e6a 793f 14a1 ac3c
000001f0: 96c7 1d3f f7c2 80bf ae76 b83f 8788 cfbe
00000200: 7e98 4dbe fa96 1abf 1ae8 72bf c425 e03e
00000210: c431 4dbf 2f25 92be 860b 0b3f c43e 203f
00000220: 05c7 753f dd9a bebe 5478 6abf ef3f 25bf
00000230: c2d7 48bf f676 8dbf 1bcd a93e 2222 e6be
00000240: afe2 f23e 8494 a5bf ac50 60bf e767 353e
00000250: ce40 8b3f 0c42 74be 91eb b53f f127 0abf
00000260: 7c73 cfbf e754 b03e ff60 833e 15f0 bfbe
00000270: c113 033f 8002 08bd 30df d6bf f198 fabe
00000280: 665d 19be a35e e43e b795 d43e aac3 ef3e
00000290: 00bb 863f 5f78 93bf 7dae 943f f2cd 85bf
000002a0: d49d ddbf a2c8 a8bd c651 3b3e 7151 5040
000002b0: 8558 26be 2a46 4fbe 65c2 29bf 9a6c 253f
000002c0: ca5c d2be 4dd9 b93e 8817 f7be f183 a33f
000002d0: f21b bb3f 0834 223f e0b2 fbbf d407 afbe
000002e0: 56c6 9c3f 9ab2 9abf 4a7d e2be 9e2b 083e
000002f0: a826 813f d9e6 f7be 4762 8d3e b28b 14c0
00000300: cdc2 a2be 3190 b9bf 7c74 223f b617 6abe
00000310: b9f9 fabe e226 2a3f 6b61 9d3e bb3f b3bf
00000320: df06 803e eb53 4cbf 7f7a 73bf 6e0f a03e
00000330: f9b6 5fbe 5c9c d5bf 6427 663f ec3d f6be
00000340: 693e 50bf 6b8d febe ef39 28bb a82f b73e
00000350: 3ffc 0f3f 67df a73e a5e3 dc3e 00fa ce3e
00000360: db7e 00bc 3a0e 6b3f eb16 423f 4408 40bd
00000370: db30 b7bf 604e 91bf eced a73e 9340 e5be
00000380: e5ce b8bf fd7b 43be f63b 843e cbc8 e2be
00000390: d2ee 843e 97d0 7b3f abc1 903e af6d 383f
000003a0: 0686 eb3e 1213 a63d 9b18 9fbe 7fa8 1b3f
000003b0: fd93 8f3e d0f8 ce3d dbd4 4f3f 02bc 02bf
000003c0: c897 fd3e f3d4 ed3e e04e 91be 5d12 bc3f
000003d0: e204 4abf 26c3 9bbe 0196 febe b002 00be
000003e0: 0f4d 5b3e 3a99 bdbe 17a5 bd3e b957 84bf
000003f0: b620 653e 3711 f53e a65b 09bf 86f5 923f

bias_ih_l1 f4 [400]
0.7353664 1.1760836 -0.19369891 -0.111484006 0.91980517 0.6117839 0.8898717 0.12429775
-1.0311558 0.4301959 1.1213881 1.0483438 0.5950038 -1.0231345 -0.06567471 0.80464894
0.87304616 0.210776 -0.07934508 0.12341118 1.2698554 0.29191482 1.204342 0.6507913
1.0714154 1.0134195 0.52831024 0.37431172 0.078570835 1.4821417 1.0774423 -0.10659393
0.7504681 0.44283745 -0.43192056 0.055108655 1.4448935 0.74207544 0.50947124 0.8572386
0.62553227 0.90125656 -0.5251126 1.0197457 0.44498667 1.1029747 0.36753613 -0.07227678
0.26360497 0.2674085 -0.37887958 -0.109623976 0.60025704 0.5308151 0.12970981 0.15073344
0.6022055 1.3685555 1.1305647 1.1157852 0.17605491 0.1460531 -1.2022351 -0.45553485
1.1787637 0.9861937 0.37468433 -1.4386365 0.83930314 -1.0418117 -0.49948752 0.79075694
-0.04211511 0.5781801 0.93230677 0.71705306 0.62812895 -0.31003922 0.39016256 -0.32121512
0.6211549 0.9849734 0.6759537 1.0845218 0.5443307 0.7112186 1.1246161 0.5981635
1.071734 0.25818735 0.8909854 0.017790478 1.2863319 -0.6322198 0.77771145 0.83974046
0.1475226 -0.41113225 1.1584009 0.76226145 1.3445132 0.39199424 1.2399253 0.15304671
0.30498266 0.7950885 0.50101626 0.18153086 0.91196746 0.14071396 0.60845345 0.17702368
1.0896993 0.71514875 -1.0714703 0.5821214 -0.010403366 -0.105746396 0.12845905 -0.21385476
0.26010653 0.18060713 0.3285917 0.40797037 -0.20228435 1.3327607 0.90255547 -0.39174476
0.6151985 0.4295226 0.31115937 0.2700089 0.4847017 0.33767197 0.6205598 1.4035666
0.6337243 0.8843402 0.3017167 0.7115301 1.0117086 0.77071244 0.34822387 -0.025917185
0.1714676 0.94875675 0.20090406 0.28360882 0.42113993 0.34834087 0.79406446 0.5217018
0.44007432 0.33451158 -0.090448305 0.6568622 0.66695917 0.47999328 0.98591256 1.1311282
0.19136474 0.91043967 0.6543084 0.77601 0.38878623 0.6758182 0.20554624 0.7278145
0.311412 0.49929094 0.3175104 -0.9898999 0.8429058 -0.1760277 -0.09004596 1.182103
0.15677375 -0.05786391 0.63273203 0.86953723 0.61687386 0.9440001 0.5238252 0.19137041
0.29667154 0.0854375 0.7672574 0.26763406 -0.025069872 0.5004943 -0.03024415 1.0983952
0.5024742 0.7903011 0.31394532 0.5285924 0.4647281 0.28925222 0.6905661 0.93512845
-0.17010808 0.7511566 -0.18729001 -0.65482765 -0.33421424 0.18255714 -0.8836729 1.3751467
0.33999872 1.0735828 -1.0200706 -0.94189453 0.55298066 -0.36240798 -0.5577601 0.40737683
1.4557167 -0.614562 0.033366673 -0.44769147 0.7094858 0.3655749 -0.9751596 -0.010274707
1.0243185 1.2367083 0.9462741 0.4434791 -0.63128746 0.24351674 -1.2674943 0.11489346
0.5705397 -0.3494346 0.45322022 -0.34578627 0.64311063 0.29696643 -0.6272824 -0.43241563
0.13280623 -1.0767148 -0.63109165 -0.051451515 0.8686309 0.83187765 0.8665068 0.12501168
1.0875508 0.7011318 0.39277837 0.9672723 -0.26625508 0.87915623 0.1948526 0.32464162
00000000: f940 3c3f e889 963f 0259 46be ba51 e4bd
00000010: 5a78 6b3f df9d 1c3f a2ce 633f d28f fe3d
00000020: eafc 83bf a342 dc3e a589 8f3f 2130 863f
00000030: 2b52 183f 12f6 82bf 7680 86bd 79fd 4d3f
00000040: f47f 5f3f aad5 573e ac7f a2bd 00bf fc3d
00000050: 9f8a a23f dc75 953e e127 9a3f 429a 263f
00000060: 2424 893f bbb7 813f 573f 073f c9a5 bf3e
00000070: bfe9 a03d d2b6 bd3f a1e9 893f eb4d dabd
00000080: ad1e 403f 97bb e23e b124 ddbe 9db9 613d
00000090: 45f2 b83f a8f8 3d3f b56c 023f fd73 5b3f
000000a0: e222 203f c0b8 663f c86d 06bf 0787 823f
000000b0: 4bd5 e33e 462e 8d3f b22d bc3e d905 94bd
000000c0: 3bf7 863e c4e9 883e 81fc c1be 8982 e0bd
000000d0: 72aa 193f 80e3 073f a6d2 043e de59 1a3e
000000e0: 242a 1a3f d42c af3f 58b6 903f 0dd2 8e3f
000000f0: bd47 343e f28e 153e d7e2 99bf dd3b e9be
00000100: bbe1 963f 3177 7c3f a0d6 bf3e 3e25 b8bf
00000110: 92dc 563f 165a 85bf d4bc ffbe 0c6f 4a3f
00000120: e580 2cbd 9c03 143f a8ab 6e3f ca90 373f
00000130: 0fcd 203f 76bd 9ebe 63c3 c73e 4f76 a4be
00000140: 0204 1f3f 3727 7c3f 4d0b 2d3f 9cd1 8a3f
00000150: 4259 0b3f 6c12 363f 6cf3 8f3f 3e21 193f
00000160: 942e 893f 2231 843e 9f17 643f 56bd 913c
00000170: 86a6 a43f 28d9 21bf 1918 473f 3bf9 563f
00000180: 2a10 173e ed7f d2be 7b46 943f 9123 433f
00000190: 0219 ac3f 78b3 c83e dfb5 9e3f 47b8 1c3e
000001a0: b026 9c3e ec8a 4b3f 9a42 003f 3ae3 393e
000001b0: b376 693f 5217 103e 9bc3 1b3f b245 353e
000001c0: 447b 8b3f fd13 373f f025 89bf e805 153f
000001d0: e172 2abc 9191 d8bd c58a 033e befc 5abe
000001e0: af2c 853e 13f1 383e 2c3d a83e 7ee1 d03e
000001f0: a123 4fbe e797 aa3f e00d 673f c592 c8be
00000200: a67d 1d3f 63ea db3e 4850 9f3e 9b3e 8a3e
00000210: d22a f83e 57e3 ac3e 02dd 1e3f 12a8 b33f
00000220: c13b 223f 1f64 623f 9c7a 9a3e d626 363f
00000230: ab7f 813f 694d 453f 664a b23e 4750 d4bc
00000240: 3495 2f3e b9e1 723f cbb9 4d3e 2d35 913e
00000250: a79f d73e bc59 b23e cf47 4b3f 408e 053f
00000260: 6c51 e13e 1a45 ab3e f63c b9bd 1f28 283f
00000270: d6bd 2a3f aec1 f53e c464 7c3f cfc8 903f
00000280: 1ef5 433e 9312 693f c180 273f 97a8 463f
00000290: fd0e c73e 6c02 2d3f b77a 523e 0d52 3a3f
000002a0: 6571 9f3e 10a3 ff3e b990 a23e 146a 7dbf
000002b0: adc8 573f 9b40 34be 046a b8bd 274f 973f
000002c0: 4c89 203e b502 6dbd bafa 213f fe99 5e3f
000002d0: 72eb 1d3f fea9 713f 6919 063f 9bf6 433e
000002e0: 55e5 973e dbf9 ae3d fb6a 443f 5507 893e
000002f0: 555f cdbc 6520 003f 94c2 f7bc 3798 8c3f
00000300: 26a2 003f 2c51 4a3f 71bd a03e d551 073f
00000310: d7f0 ed3e de18 943e f1c8 303f 9464 6f3f
00000320: d030 2ebe cd4b 403f f4c8 3fbe c9a2 27bf
00000330: 211e abbe 42f0 3a3e 6338 62bf cf04 b03f
00000340: 5014 ae3e 296b 893f ac91 82bf 0020 71bf
00000350: 2490 0d3f 8a8d b9be 5ec9 0ebf b293 d03e
00000360: ed54 ba3f ef53 1dbf 7eab 083d d137 e5be
00000370: dda0 353f a22c bb3e 0fa4 79bf 3f57 28bc
00000380: de1c 833f 754c 9e3f 053f 723f b10f e33e
00000390: 0e9c 21bf 745c 793e 413d a2bf 434d eb3d
000003a0: e40e 123f 18e9 b2be 7b0c e83e e60a b1be
000003b0: e6a2 243f fc0b 983e 9495 20bf 9565 ddbe
000003c0: 5bfe 073e cad1 89bf 398f 21bf d3be 52bd
000003d0: 985e 5e3f eff5 543f 64d3 5d3f 1003 003e
000003e0: dd34 8b3f 607d 333f 3f1a c93e 289f 773f
000003f0: 9652 88be 6210 613f 7187 473e 6d37 a63e

bias_hh_l1 f4 [400]
0.87246144 1.1199428 -0.25402465 0.020375364 0.9078436 0.611134 0.86146533 0.13301776
-1.1937326 0.4874997 1.0289943 1.1441166 0.6860521 -1.0148609 0.008398373 0.9619186
0.8899142 0.2273482 -0.098546125 0.08402864 1.3856722 0.21815598 1.2453773 0.6157435
1.0458312 0.9675632 0.64339554 0.30030274 0.042093582 1.4763511 1.1163851 0.01392702
0.80814695 0.41446665 -0.3909498 -0.020929104 1.3616749 0.7675692 0.37527546 0.9112016
0.7457042 0.81784385 -0.5083686 1.0860288 0.4893793 1.1005816 0.483577 -0.043791752
0.3145094 0.22805193 -0.37706855 -0.00021149313 0.646923 0.5485894 0.14062202 0.08578932
0.6840258 1.3653662 1.0755485 1.0007855 0.19645865 0.092913106 -1.1104449 -0.30575177
1.104189 0.8893093 0.40339422 -1.4762816 1.0108017 -1.1098067 -0.4130634 0.8176459
-0.1531053 0.5396262 1.0275112 0.6672069 0.55913335 -0.33189863 0.24123129 -0.1602711
0.6228868 1.0570873 0.68345815 0.93105024 0.40155405 0.810116 1.1326835 0.5005635
1.1704997 0.119599305 0.89392316 0.084638014 1.2927545 -0.46602434 0.7726105 0.79312015
0.101485714 -0.31734926 1.1156869 0.6212204 1.2742527 0.48832244 1.2852873 0.1450815
0.21942872 0.7910947 0.32775155 0.24239673 0.83486456 0.18075678 0.7176518 0.154787
1.0318489 0.6822223 -0.9634961 0.5687372 0.101710334 -0.12672421 0.23192436 -0.3782806
0.27338773 0.14017484 0.5093441 0.34554508 -0.23030993 1.281693 0.7909684 -0.41720316
0.70294815 0.34791747 0.44797572 0.13269706 0.3721756 0.3299369 0.6159501 1.4626579
0.5613137 0.9286026 0.23404379 0.83311075 1.0851848 0.75692207 0.21676786 -0.09365584
0.054892488 0.89749146 0.12004094 0.2754873 0.43499318 0.32375684 0.6722785 0.5415733
0.36290503 0.2574607 -0.07225382 0.682784 0.73122513 0.5443315 1.0244318 1.0215466
0.29973644 0.8945859 0.66070354 0.7561791 0.38144714 0.62293416 0.13324045 0.654281
0.22076401 0.41243327 0.3523863 -0.91461647 0.8815664 -0.17138739 -0.25148216 1.12348
0.15992929 -0.1917321 0.62883633 0.88763833 0.586752 0.8677225 0.39381978 0.1572222
0.35280553 0.030567884 0.8417029 0.29426447 0.018442972 0.5018832 -0.030897966 1.1852759
0.5000996 0.8166939 0.36956874 0.41217238 0.5088465 0.27147284 0.714391 0.8471966
-0.20318797 0.6920758 -0.09633389 -0.7177938 -0.22667499 0.057269145 -0.95284206 1.2134261
0.20666337 1.0148698 -0.96606046 -0.92968726 0.64493376 -0.40387407 -0.5292197 0.4625871
1.547583 -0.46548593 -0.0034340452 -0.48590222 0.8790722 0.31490287 -1.0224191 0.013856347
1.1019636 1.2236352 1.0500699 0.38861474 -0.5673435 0.25593263 -1.2261385 0.012991612
0.602825 -0.4381442 0.60713744 -0.42610392 0.6122211 0.31467232 -0.62348086 -0.40737042
0.07997996 -1.1061159 -0.5904425 0.061533015 0.89517117 0.9226264 0.709965 0.09601867
1.2398837 0.5986441 0.41123787 0.9984316 -0.3527034 0.8898577 0.17375802 0.34329203
00000000: a259 5f3f 495a 8f3f 850f 82be 3cea a63c
00000010: 7068 683f 4773 1c3f fe88 5c3f cf35 083e
00000020: 3bcc 98bf 9099 f93e 16b6 833f 6a72 923f
00000030: 1ca1 2f3f f6e6 81bf 5499 093c 4c40 763f
00000040: 6bd1 633f f7cd 683e 8dd2 c9bd 3517 ac3d
00000050: b55d b13f 4864 5f3e 8668 9f3f 5ea1 1d3f
00000060: ccdd 853f 39b2 773f 92b5 243f 48c1 993e
00000070: 526a 2c3d 13f9 bc3f b5e5 8e3f 282e 643c
00000080: b8e2 4e3f f934 d43e 922a c8be 8373 abbc
00000090: 5d4b ae3f 6a7f 443f 1b24 c03e 8244 693f
000000a0: 78e6 3e3f 375e 513f 7224 02bf fe02 8b3f
000000b0: ec8f fa3e dcdf 8c3f 6897 f73e fb5e 33bd
000000c0: 6007 a13e 7286 693e 210f c1be 41c4 5db9
000000d0: bf9c 253f 5b70 0c3f 38ff 0f3e 50b2 af3d
000000e0: 511c 2f3f 52c4 ae3f 93ab 893f bd19 803f
000000f0: 752c 493e 3a49 be3d 0f23 8ebf 7f8b 9cbe
00000100: 1156 8d3f c6a9 633f b089 ce3e ccf6 bcbf
00000110: f361 813f 250e 8ebf 0c7d d3be 3e51 513f
00000120: a3c7 1cbe f124 0a3f 7d85 833f 12ce 2a3f
00000130: 5d23 0f3f 9eee a9be 5605 773e 1b1e 24be
00000140: 8275 1f3f a34e 873f 1df7 2e3f 4f59 6e3f
00000150: 7e98 cd3e c363 4f3f c6fb 903f ee24 003f
00000160: efd2 953f 7bf0 f43d 26d8 643f b256 ad3d
00000170: fb78 a53f be9a eebe cdc9 453f ec09 4b3f
00000180: bed7 cf3d 9a7b a2be d4ce 8e3f 4d08 1f3f
00000190: b61a a33f 6605 fa3e 4b84 a43f 3f90 143e
000001a0: ecb1 603e 2f85 4a3f 0dcf a73e d936 783e
000001b0: afb9 553f 4e18 393e 07b8 373f 7c80 1e3e
000001c0: a013 843f 1fa6 2e3f aea7 76bf c398 113f
000001d0: 824d d03d fec3 01be 947d 6d3e ffad c1be
000001e0: 7af9 8b3e fe89 0f3e 6064 023f 49eb b03e
000001f0: 5ed6 6bbe 840e a43f e87c 4a3f a79b d5be
00000200: 69f4 333f 3d22 b23e 135d e53e bde1 073e
00000210: cd8d be3e 7ded a83e e8ae 1d3f 6038 bb3f
00000220: 41b2 0f3f e6b8 6d3f 2da9 6f3e bf46 553f
00000230: 56e7 8a3f a5c5 413f 65f8 5d3e a2ce bfbd
00000240: f2d6 603d 00c2 653f 06d8 f53d ac0c 8d3e
00000250: 6db7 de3e 75c3 a53e 721a 2c3f 8ca4 0a3f
00000260: b0ce b93e e4d1 833e d0f9 93bd efca 2e3f
00000270: 9231 3b3f 4f59 0b3f 9520 833f 0ac2 823f
00000280: 0e77 993e 9503 653f de23 293f f494 413f
00000290: 0a4d c33e 9d78 1f3f 2f70 083e f67e 273f
000002a0: f60f 623e 742a d33e fa6b b43e 4e24 6abf
000002b0: 56ae 613f 2d80 2fbe 45c2 80be 31ce 8f3f
000002c0: 81c4 233e 6b55 44be 6bfb 203f 443c 633f
000002d0: 6135 163f 1023 5e3f bfa2 c93e dbfe 203e
000002e0: eda2 b43e 8069 fa3c d779 573f d5a9 963e
000002f0: b715 973c 6b7b 003f bb1d fdbc 1fb7 973f
00000300: 8706 003f da12 513f 1d38 bd3e 4208 d33e
00000310: c443 023f 7dfe 8a3e 54e2 363f e0e1 583f
00000320: 8210 50be e12b 313f b44a c5bd 56c1 37bf
00000330: 7d1d 68be 0d93 6a3d 75ed 73bf 8c51 9b3f
00000340: 909f 533e 41e7 813f bd4f 77bf fcff 6dbf
00000350: 611a 253f 95c8 cebe f17a 07bf 37d8 ec3e
00000360: 3317 c63f 2c54 eebe b80d 61bb 2dc8 f8be
00000370: e00a 613f f33a a13e a1de 82bf bb05 633c
00000380: 250d 8d3f 14a0 9c3f b168 863f 83f8 c63e
00000390: 6c3d 11bf 9a09 833e 1bf2 9cbf c5da 543c
000003a0: bd52 1a3f 7054 e0be 5c6d 1b3f 4b2a dabe
000003b0: 86ba 1c3f bb1c a13e 719c 1fbf db92 d0be
000003c0: 89cc a33d 3595 8dbf 3d27 17bf 0b0a 7c3d
000003d0: f029 653f 3e31 6c3f 44c0 353f 70a5 c43d
000003e0: 82b4 9e3f bd40 193f c58d d23e 3799 7f3f
000003f0: 8a95 b4be b7cd 633f 9fed 313e f9c3 af3e
